…
2023-01-28 02:11:04,142 - INFO - train	x: (3061, 19, 16, 8, 2), y: (3061, 1, 16, 8, 2)
2023-01-28 02:11:04,142 - INFO - eval	x: (437, 19, 16, 8, 2), y: (437, 1, 16, 8, 2)
2023-01-28 02:11:04,142 - INFO - test	x: (875, 19, 16, 8, 2), y: (875, 1, 16, 8, 2)
2023-01-28 02:11:04,224 - INFO - StandardScaler mean: 9.23899494542977, std: 18.095629608758927
2023-01-28 02:11:04,225 - INFO - NoneScaler
2023-01-28 02:11:04,505 - INFO - You select full mode to train STGCN model.
2023-01-28 02:11:04,668 - INFO - Chebyshev_polynomial_Lk shape: (3, 128, 128)
2023-01-28 02:11:09,410 - INFO - STGCN(
  (st_conv1): STConvBlock(
    (tconv1): TemporalConvLayer(
      (align): Align()
      (conv): Conv2d(2, 64, kernel_size=(3, 1), stride=(1, 1))
    )
    (sconv): SpatioConvLayer(
      (align): Align()
    )
    (tconv2): TemporalConvLayer(
      (align): Align()
      (conv): Conv2d(32, 64, kernel_size=(3, 1), stride=(1, 1))
    )
    (ln): LayerNorm((128, 64), eps=1e-05, elementwise_affine=True)
    (dropout): Dropout(p=0, inplace=False)
  )
  (st_conv2): STConvBlock(
    (tconv1): TemporalConvLayer(
      (align): Align(
        (conv1x1): Conv2d(64, 32, kernel_size=(1, 1), stride=(1, 1))
      )
      (conv): Conv2d(64, 64, kernel_size=(3, 1), stride=(1, 1))
    )
    (sconv): SpatioConvLayer(
      (align): Align()
    )
    (tconv2): TemporalConvLayer(
      (align): Align()
      (conv): Conv2d(32, 128, kernel_size=(3, 1), stride=(1, 1))
    )
    (ln): LayerNorm((128, 128), eps=1e-05, elementwise_affine=True)
    (dropout): Dropout(p=0, inplace=False)
  )
  (output): OutputLayer(
    (tconv1): TemporalConvLayer(
      (align): Align()
      (conv): Conv2d(128, 256, kernel_size=(11, 1), stride=(1, 1))
    )
    (ln): LayerNorm((128, 128), eps=1e-05, elementwise_affine=True)
    (tconv2): TemporalConvLayer(
      (align): Align()
      (conv): Conv2d(128, 128, kernel_size=(1, 1), stride=(1, 1))
    )
    (fc): FullyConvLayer(
      (conv): Conv2d(128, 2, kernel_size=(1, 1), stride=(1, 1))
    )
  )
)
2023-01-28 02:11:09,411 - INFO - st_conv1.tconv1.conv.weight	torch.Size([64, 2, 3, 1])	cuda:0	True
2023-01-28 02:11:09,411 - INFO - st_conv1.tconv1.conv.bias	torch.Size([64])	cuda:0	True
2023-01-28 02:11:09,411 - INFO - st_conv1.sconv.theta	torch.Size([32, 32, 3])	cuda:0	True
2023-01-28 02:11:09,411 - INFO - st_conv1.sconv.b	torch.Size([1, 32, 1, 1])	cuda:0	True
…
