…
2023-01-30 06:39:42,621 - INFO - train	x: (3061, 19, 16, 8, 3), y: (3061, 1, 16, 8, 3)
2023-01-30 06:39:42,621 - INFO - eval	x: (437, 19, 16, 8, 3), y: (437, 1, 16, 8, 3)
2023-01-30 06:39:42,621 - INFO - test	x: (875, 19, 16, 8, 3), y: (875, 1, 16, 8, 3)
2023-01-30 06:39:48,572 - INFO - Saved at ./libcity/cache/dataset_cache/grid_based_NYCBike_19_1_0.7_0.1_standard_32_True_True_False_True_True.npz
2023-01-30 06:39:48,781 - INFO - StandardScaler mean: 9.23899494542977, std: 18.095629608758927
2023-01-30 06:39:48,781 - INFO - NoneScaler
2023-01-30 06:39:54,457 - INFO - STSGCN(
  (first_layer_embedding): Linear(in_features=3, out_features=64, bias=True)
  (stsgcl_layers): ModuleList(
    (0): STSGCL(
      (layer): STSGCNLayerIndividual(
        (position_embedding): PositionEmbedding()
        (gcms): ModuleList(
          (0): Stsgcm(
            (layers): ModuleList(
              (0): GcnOperation(
                (layer): Linear(in_features=64, out_features=128, bias=True)
              )
              (1): GcnOperation(
                (layer): Linear(in_features=64, out_features=128, bias=True)
              )
              (2): GcnOperation(
                (layer): Linear(in_features=64, out_features=128, bias=True)
              )
            )
          )
          (1): Stsgcm(
            (layers): ModuleList(
              (0): GcnOperation(
                (layer): Linear(in_features=64, out_features=128, bias=True)
              )
              (1): GcnOperation(
                (layer): Linear(in_features=64, out_features=128, bias=True)
              )
              (2): GcnOperation(
                (layer): Linear(in_features=64, out_features=128, bias=True)
              )
            )
          )
          (2): Stsgcm(
            (layers): ModuleList(
              (0): GcnOperation(
                (layer): Linear(in_features=64, out_features=128, bias=True)
              )
              (1): GcnOperation(
                (layer): Linear(in_features=64, out_features=128, bias=True)
              )
              (2): GcnOperation(
                (layer): Linear(in_features=64, out_features=128, bias=True)
              )
            )
          )
          (3): Stsgcm(
            (layers): ModuleList(
              (0): GcnOperation(
                (layer): Linear(in_features=64, out_features=128, bias=True)
              )
              (1): GcnOperation(
                (layer): Linear(in_features=64, out_features=128, bias=True)
              )
              (2): GcnOperation(
                (layer): Linear(in_features=64, out_features=128, bias=True)
              )
            )
          )
          (4): Stsgcm(
            (layers): ModuleList(
              (0): GcnOperation(
                (layer): Linear(in_features=64, out_features=128, bias=True)
              )
              (1): GcnOperation(
                (layer): Linear(in_features=64, out_features=128, bias=True)
              )
              (2): GcnOperation(
                (layer): Linear(in_features=64, out_features=128, bias=True)
              )
            )
          )
          (5): Stsgcm(
            (layers): ModuleList(
              (0): GcnOperation(
                (layer): Linear(in_features=64, out_features=128, bias=True)
              )
              (1): GcnOperation(
                (layer): Linear(in_features=64, out_features=128, bias=True)
              )
              (2): GcnOperation(
                (layer): Linear(in_features=64, out_features=128, bias=True)
              )
            )
          )
          (6): Stsgcm(
            (layers): ModuleList(
              (0): GcnOperation(
                (layer): Linear(in_features=64, out_features=128, bias=True)
              )
              (1): GcnOperation(
                (layer): Linear(in_features=64, out_features=128, bias=True)
              )
              (2): GcnOperation(
                (layer): Linear(in_features=64, out_features=128, bias=True)
              )
            )
          )
          (7): Stsgcm(
            (layers): ModuleList(
              (0): GcnOperation(
                (layer): Linear(in_features=64, out_features=128, bias=True)
              )
              (1): GcnOperation(
                (layer): Linear(in_features=64, out_features=128, bias=True)
              )
              (2): GcnOperation(
                (layer): Linear(in_features=64, out_features=128, bias=True)
              )
            )
          )
          (8): Stsgcm(
            (layers): ModuleList(
              (0): GcnOperation(
                (layer): Linear(in_features=64, out_features=128, bias=True)
              )
              (1): GcnOperation(
                (layer): Linear(in_features=64, out_features=128, bias=True)
              )
              (2): GcnOperation(
                (layer): Linear(in_features=64, out_features=128, bias=True)
              )
            )
          )
          (9): Stsgcm(
            (layers): ModuleList(
              (0): GcnOperation(
                (layer): Linear(in_features=64, out_features=128, bias=True)
              )
              (1): GcnOperation(
                (layer): Linear(in_features=64, out_features=128, bias=True)
              )
              (2): GcnOperation(
                (layer): Linear(in_features=64, out_features=128, bias=True)
              )
            )
          )
          (10): Stsgcm(
            (layers): ModuleList(
              (0): GcnOperation(
                (layer): Linear(in_features=64, out_features=128, bias=True)
              )
              (1): GcnOperation(
                (layer): Linear(in_features=64, out_features=128, bias=True)
              )
              (2): GcnOperation(
                (layer): Linear(in_features=64, out_features=128, bias=True)
              )
            )
          )
          (11): Stsgcm(
            (layers): ModuleList(
              (0): GcnOperation(
                (layer): Linear(in_features=64, out_features=128, bias=True)
              )
              (1): GcnOperation(
                (layer): Linear(in_features=64, out_features=128, bias=True)
              )
              (2): GcnOperation(
                (layer): Linear(in_features=64, out_features=128, bias=True)
              )
            )
          )
          (12): Stsgcm(
            (layers): ModuleList(
              (0): GcnOperation(
                (layer): Linear(in_features=64, out_features=128, bias=True)
              )
              (1): GcnOperation(
                (layer): Linear(in_features=64, out_features=128, bias=True)
              )
              (2): GcnOperation(
                (layer): Linear(in_features=64, out_features=128, bias=True)
              )
            )
          )
          (13): Stsgcm(
            (layers): ModuleList(
              (0): GcnOperation(
                (layer): Linear(in_features=64, out_features=128, bias=True)
              )
              (1): GcnOperation(
                (layer): Linear(in_features=64, out_features=128, bias=True)
              )
              (2): GcnOperation(
                (layer): Linear(in_features=64, out_features=128, bias=True)
              )
            )
          )
          (14): Stsgcm(
            (layers): ModuleList(
              (0): GcnOperation(
                (layer): Linear(in_features=64, out_features=128, bias=True)
              )
              (1): GcnOperation(
                (layer): Linear(in_features=64, out_features=128, bias=True)
              )
              (2): GcnOperation(
                (layer): Linear(in_features=64, out_features=128, bias=True)
              )
            )
          )
          (15): Stsgcm(
            (layers): ModuleList(
              (0): GcnOperation(
                (layer): Linear(in_features=64, out_features=128, bias=True)
              )
              (1): GcnOperation(
                (layer): Linear(in_features=64, out_features=128, bias=True)
              )
              (2): GcnOperation(
                (layer): Linear(in_features=64, out_features=128, bias=True)
              )
            )
          )
          (16): Stsgcm(
            (layers): ModuleList(
              (0): GcnOperation(
                (layer): Linear(in_features=64, out_features=128, bias=True)
              )
              (1): GcnOperation(
                (layer): Linear(in_features=64, out_features=128, bias=True)
              )
              (2): GcnOperation(
                (layer): Linear(in_features=64, out_features=128, bias=True)
              )
            )
          )
        )
      )
    )
    (1): STSGCL(
      (layer): STSGCNLayerIndividual(
        (position_embedding): PositionEmbedding()
        (gcms): ModuleList(
          (0): Stsgcm(
            (layers): ModuleList(
              (0): GcnOperation(
                (layer): Linear(in_features=64, out_features=128, bias=True)
              )
              (1): GcnOperation(
                (layer): Linear(in_features=64, out_features=128, bias=True)
              )
              (2): GcnOperation(
                (layer): Linear(in_features=64, out_features=128, bias=True)
              )
            )
          )
          (1): Stsgcm(
            (layers): ModuleList(
              (0): GcnOperation(
                (layer): Linear(in_features=64, out_features=128, bias=True)
              )
              (1): GcnOperation(
                (layer): Linear(in_features=64, out_features=128, bias=True)
              )
              (2): GcnOperation(
                (layer): Linear(in_features=64, out_features=128, bias=True)
              )
            )
          )
          (2): Stsgcm(
            (layers): ModuleList(
              (0): GcnOperation(
                (layer): Linear(in_features=64, out_features=128, bias=True)
              )
              (1): GcnOperation(
                (layer): Linear(in_features=64, out_features=128, bias=True)
              )
              (2): GcnOperation(
                (layer): Linear(in_features=64, out_features=128, bias=True)
              )
            )
          )
          (3): Stsgcm(
            (layers): ModuleList(
              (0): GcnOperation(
                (layer): Linear(in_features=64, out_features=128, bias=True)
              )
              (1): GcnOperation(
                (layer): Linear(in_features=64, out_features=128, bias=True)
              )
              (2): GcnOperation(
                (layer): Linear(in_features=64, out_features=128, bias=True)
              )
            )
          )
          (4): Stsgcm(
            (layers): ModuleList(
              (0): GcnOperation(
                (layer): Linear(in_features=64, out_features=128, bias=True)
              )
              (1): GcnOperation(
                (layer): Linear(in_features=64, out_features=128, bias=True)
              )
              (2): GcnOperation(
                (layer): Linear(in_features=64, out_features=128, bias=True)
              )
            )
          )
          (5): Stsgcm(
            (layers): ModuleList(
              (0): GcnOperation(
                (layer): Linear(in_features=64, out_features=128, bias=True)
              )
              (1): GcnOperation(
                (layer): Linear(in_features=64, out_features=128, bias=True)
              )
              (2): GcnOperation(
                (layer): Linear(in_features=64, out_features=128, bias=True)
              )
            )
          )
          (6): Stsgcm(
            (layers): ModuleList(
              (0): GcnOperation(
                (layer): Linear(in_features=64, out_features=128, bias=True)
              )
              (1): GcnOperation(
                (layer): Linear(in_features=64, out_features=128, bias=True)
              )
              (2): GcnOperation(
                (layer): Linear(in_features=64, out_features=128, bias=True)
              )
            )
          )
          (7): Stsgcm(
            (layers): ModuleList(
              (0): GcnOperation(
                (layer): Linear(in_features=64, out_features=128, bias=True)
              )
              (1): GcnOperation(
                (layer): Linear(in_features=64, out_features=128, bias=True)
              )
              (2): GcnOperation(
                (layer): Linear(in_features=64, out_features=128, bias=True)
              )
            )
          )
          (8): Stsgcm(
            (layers): ModuleList(
              (0): GcnOperation(
                (layer): Linear(in_features=64, out_features=128, bias=True)
              )
              (1): GcnOperation(
                (layer): Linear(in_features=64, out_features=128, bias=True)
              )
              (2): GcnOperation(
                (layer): Linear(in_features=64, out_features=128, bias=True)
              )
            )
          )
          (9): Stsgcm(
            (layers): ModuleList(
              (0): GcnOperation(
                (layer): Linear(in_features=64, out_features=128, bias=True)
              )
              (1): GcnOperation(
                (layer): Linear(in_features=64, out_features=128, bias=True)
              )
              (2): GcnOperation(
                (layer): Linear(in_features=64, out_features=128, bias=True)
              )
            )
          )
          (10): Stsgcm(
            (layers): ModuleList(
              (0): GcnOperation(
                (layer): Linear(in_features=64, out_features=128, bias=True)
              )
              (1): GcnOperation(
                (layer): Linear(in_features=64, out_features=128, bias=True)
              )
              (2): GcnOperation(
                (layer): Linear(in_features=64, out_features=128, bias=True)
              )
            )
          )
          (11): Stsgcm(
            (layers): ModuleList(
              (0): GcnOperation(
                (layer): Linear(in_features=64, out_features=128, bias=True)
              )
              (1): GcnOperation(
                (layer): Linear(in_features=64, out_features=128, bias=True)
              )
              (2): GcnOperation(
                (layer): Linear(in_features=64, out_features=128, bias=True)
              )
            )
          )
          (12): Stsgcm(
            (layers): ModuleList(
              (0): GcnOperation(
                (layer): Linear(in_features=64, out_features=128, bias=True)
              )
              (1): GcnOperation(
                (layer): Linear(in_features=64, out_features=128, bias=True)
              )
              (2): GcnOperation(
                (layer): Linear(in_features=64, out_features=128, bias=True)
              )
            )
          )
          (13): Stsgcm(
            (layers): ModuleList(
              (0): GcnOperation(
                (layer): Linear(in_features=64, out_features=128, bias=True)
              )
              (1): GcnOperation(
                (layer): Linear(in_features=64, out_features=128, bias=True)
              )
              (2): GcnOperation(
                (layer): Linear(in_features=64, out_features=128, bias=True)
              )
            )
          )
          (14): Stsgcm(
            (layers): ModuleList(
              (0): GcnOperation(
                (layer): Linear(in_features=64, out_features=128, bias=True)
              )
              (1): GcnOperation(
                (layer): Linear(in_features=64, out_features=128, bias=True)
              )
              (2): GcnOperation(
                (layer): Linear(in_features=64, out_features=128, bias=True)
              )
            )
          )
        )
      )
    )
    (2): STSGCL(
      (layer): STSGCNLayerIndividual(
        (position_embedding): PositionEmbedding()
        (gcms): ModuleList(
          (0): Stsgcm(
            (layers): ModuleList(
              (0): GcnOperation(
                (layer): Linear(in_features=64, out_features=128, bias=True)
              )
              (1): GcnOperation(
                (layer): Linear(in_features=64, out_features=128, bias=True)
              )
              (2): GcnOperation(
                (layer): Linear(in_features=64, out_features=128, bias=True)
              )
            )
          )
          (1): Stsgcm(
            (layers): ModuleList(
              (0): GcnOperation(
                (layer): Linear(in_features=64, out_features=128, bias=True)
              )
              (1): GcnOperation(
                (layer): Linear(in_features=64, out_features=128, bias=True)
              )
              (2): GcnOperation(
                (layer): Linear(in_features=64, out_features=128, bias=True)
              )
            )
          )
          (2): Stsgcm(
            (layers): ModuleList(
              (0): GcnOperation(
                (layer): Linear(in_features=64, out_features=128, bias=True)
              )
              (1): GcnOperation(
                (layer): Linear(in_features=64, out_features=128, bias=True)
              )
              (2): GcnOperation(
                (layer): Linear(in_features=64, out_features=128, bias=True)
              )
            )
          )
          (3): Stsgcm(
            (layers): ModuleList(
              (0): GcnOperation(
                (layer): Linear(in_features=64, out_features=128, bias=True)
              )
              (1): GcnOperation(
                (layer): Linear(in_features=64, out_features=128, bias=True)
              )
              (2): GcnOperation(
                (layer): Linear(in_features=64, out_features=128, bias=True)
              )
            )
          )
          (4): Stsgcm(
            (layers): ModuleList(
              (0): GcnOperation(
                (layer): Linear(in_features=64, out_features=128, bias=True)
              )
              (1): GcnOperation(
                (layer): Linear(in_features=64, out_features=128, bias=True)
              )
              (2): GcnOperation(
                (layer): Linear(in_features=64, out_features=128, bias=True)
              )
            )
          )
          (5): Stsgcm(
            (layers): ModuleList(
              (0): GcnOperation(
                (layer): Linear(in_features=64, out_features=128, bias=True)
              )
              (1): GcnOperation(
                (layer): Linear(in_features=64, out_features=128, bias=True)
              )
              (2): GcnOperation(
                (layer): Linear(in_features=64, out_features=128, bias=True)
              )
            )
          )
          (6): Stsgcm(
            (layers): ModuleList(
              (0): GcnOperation(
                (layer): Linear(in_features=64, out_features=128, bias=True)
              )
              (1): GcnOperation(
                (layer): Linear(in_features=64, out_features=128, bias=True)
              )
              (2): GcnOperation(
                (layer): Linear(in_features=64, out_features=128, bias=True)
              )
            )
          )
          (7): Stsgcm(
            (layers): ModuleList(
              (0): GcnOperation(
                (layer): Linear(in_features=64, out_features=128, bias=True)
              )
              (1): GcnOperation(
                (layer): Linear(in_features=64, out_features=128, bias=True)
              )
              (2): GcnOperation(
                (layer): Linear(in_features=64, out_features=128, bias=True)
              )
            )
          )
          (8): Stsgcm(
            (layers): ModuleList(
              (0): GcnOperation(
                (layer): Linear(in_features=64, out_features=128, bias=True)
              )
              (1): GcnOperation(
                (layer): Linear(in_features=64, out_features=128, bias=True)
              )
              (2): GcnOperation(
                (layer): Linear(in_features=64, out_features=128, bias=True)
              )
            )
          )
          (9): Stsgcm(
            (layers): ModuleList(
              (0): GcnOperation(
                (layer): Linear(in_features=64, out_features=128, bias=True)
              )
              (1): GcnOperation(
                (layer): Linear(in_features=64, out_features=128, bias=True)
              )
              (2): GcnOperation(
                (layer): Linear(in_features=64, out_features=128, bias=True)
              )
            )
          )
          (10): Stsgcm(
            (layers): ModuleList(
              (0): GcnOperation(
                (layer): Linear(in_features=64, out_features=128, bias=True)
              )
              (1): GcnOperation(
                (layer): Linear(in_features=64, out_features=128, bias=True)
              )
              (2): GcnOperation(
                (layer): Linear(in_features=64, out_features=128, bias=True)
              )
            )
          )
          (11): Stsgcm(
            (layers): ModuleList(
              (0): GcnOperation(
                (layer): Linear(in_features=64, out_features=128, bias=True)
              )
              (1): GcnOperation(
                (layer): Linear(in_features=64, out_features=128, bias=True)
              )
              (2): GcnOperation(
                (layer): Linear(in_features=64, out_features=128, bias=True)
              )
            )
          )
          (12): Stsgcm(
            (layers): ModuleList(
              (0): GcnOperation(
                (layer): Linear(in_features=64, out_features=128, bias=True)
              )
              (1): GcnOperation(
                (layer): Linear(in_features=64, out_features=128, bias=True)
              )
              (2): GcnOperation(
                (layer): Linear(in_features=64, out_features=128, bias=True)
              )
            )
          )
        )
      )
    )
    (3): STSGCL(
      (layer): STSGCNLayerIndividual(
        (position_embedding): PositionEmbedding()
        (gcms): ModuleList(
          (0): Stsgcm(
            (layers): ModuleList(
              (0): GcnOperation(
                (layer): Linear(in_features=64, out_features=128, bias=True)
              )
              (1): GcnOperation(
                (layer): Linear(in_features=64, out_features=128, bias=True)
              )
              (2): GcnOperation(
                (layer): Linear(in_features=64, out_features=128, bias=True)
              )
            )
          )
          (1): Stsgcm(
            (layers): ModuleList(
              (0): GcnOperation(
                (layer): Linear(in_features=64, out_features=128, bias=True)
              )
              (1): GcnOperation(
                (layer): Linear(in_features=64, out_features=128, bias=True)
              )
              (2): GcnOperation(
                (layer): Linear(in_features=64, out_features=128, bias=True)
              )
            )
          )
          (2): Stsgcm(
            (layers): ModuleList(
              (0): GcnOperation(
                (layer): Linear(in_features=64, out_features=128, bias=True)
              )
              (1): GcnOperation(
                (layer): Linear(in_features=64, out_features=128, bias=True)
              )
              (2): GcnOperation(
                (layer): Linear(in_features=64, out_features=128, bias=True)
              )
            )
          )
          (3): Stsgcm(
            (layers): ModuleList(
              (0): GcnOperation(
                (layer): Linear(in_features=64, out_features=128, bias=True)
              )
              (1): GcnOperation(
                (layer): Linear(in_features=64, out_features=128, bias=True)
              )
              (2): GcnOperation(
                (layer): Linear(in_features=64, out_features=128, bias=True)
              )
            )
          )
          (4): Stsgcm(
            (layers): ModuleList(
              (0): GcnOperation(
                (layer): Linear(in_features=64, out_features=128, bias=True)
              )
              (1): GcnOperation(
                (layer): Linear(in_features=64, out_features=128, bias=True)
              )
              (2): GcnOperation(
                (layer): Linear(in_features=64, out_features=128, bias=True)
              )
            )
          )
          (5): Stsgcm(
            (layers): ModuleList(
              (0): GcnOperation(
                (layer): Linear(in_features=64, out_features=128, bias=True)
              )
              (1): GcnOperation(
                (layer): Linear(in_features=64, out_features=128, bias=True)
              )
              (2): GcnOperation(
                (layer): Linear(in_features=64, out_features=128, bias=True)
              )
            )
          )
          (6): Stsgcm(
            (layers): ModuleList(
              (0): GcnOperation(
                (layer): Linear(in_features=64, out_features=128, bias=True)
              )
              (1): GcnOperation(
                (layer): Linear(in_features=64, out_features=128, bias=True)
              )
              (2): GcnOperation(
                (layer): Linear(in_features=64, out_features=128, bias=True)
              )
            )
          )
          (7): Stsgcm(
            (layers): ModuleList(
              (0): GcnOperation(
                (layer): Linear(in_features=64, out_features=128, bias=True)
              )
              (1): GcnOperation(
                (layer): Linear(in_features=64, out_features=128, bias=True)
              )
              (2): GcnOperation(
                (layer): Linear(in_features=64, out_features=128, bias=True)
              )
            )
          )
          (8): Stsgcm(
            (layers): ModuleList(
              (0): GcnOperation(
                (layer): Linear(in_features=64, out_features=128, bias=True)
              )
              (1): GcnOperation(
                (layer): Linear(in_features=64, out_features=128, bias=True)
              )
              (2): GcnOperation(
                (layer): Linear(in_features=64, out_features=128, bias=True)
              )
            )
          )
          (9): Stsgcm(
            (layers): ModuleList(
              (0): GcnOperation(
                (layer): Linear(in_features=64, out_features=128, bias=True)
              )
              (1): GcnOperation(
                (layer): Linear(in_features=64, out_features=128, bias=True)
              )
              (2): GcnOperation(
                (layer): Linear(in_features=64, out_features=128, bias=True)
              )
            )
          )
          (10): Stsgcm(
            (layers): ModuleList(
              (0): GcnOperation(
                (layer): Linear(in_features=64, out_features=128, bias=True)
              )
              (1): GcnOperation(
                (layer): Linear(in_features=64, out_features=128, bias=True)
              )
              (2): GcnOperation(
                (layer): Linear(in_features=64, out_features=128, bias=True)
              )
            )
          )
        )
      )
    )
  )
  (outputs): ModuleList(
    (0): OutputLayer(
      (hidden_layer): Linear(in_features=704, out_features=128, bias=True)
      (ouput_layer): Linear(in_features=128, out_features=2, bias=True)
    )
  )
  (loss): SmoothL1Loss()
)
2023-01-30 06:39:54,464 - INFO - first_layer_embedding.weight	torch.Size([64, 3])	cuda:0	True
2023-01-30 06:39:54,464 - INFO - first_layer_embedding.bias	torch.Size([64])	cuda:0	True
2023-01-30 06:39:54,464 - INFO - stsgcl_layers.0.layer.position_embedding.temporal_emb	torch.Size([1, 19, 1, 64])	cuda:0	True
2023-01-30 06:39:54,464 - INFO - stsgcl_layers.0.layer.position_embedding.spatial_emb	torch.Size([1, 1, 128, 64])	cuda:0	True
…
