…
2023-01-10 08:50:28,579 - INFO - train	x: (3058, 12, 16, 8, 2), y: (3058, 12, 16, 8, 2)
2023-01-10 08:50:28,579 - INFO - eval	x: (437, 12, 16, 8, 2), y: (437, 12, 16, 8, 2)
2023-01-10 08:50:28,579 - INFO - test	x: (874, 12, 16, 8, 2), y: (874, 12, 16, 8, 2)
2023-01-10 08:50:28,632 - INFO - StandardScaler mean: 9.230346759524199, std: 18.07876831474537
2023-01-10 08:50:28,633 - INFO - NoneScaler
2023-01-10 08:50:29,105 - INFO - You select quick mode to train STGCN model.
2023-01-10 08:50:29,209 - INFO - Chebyshev_polynomial_Lk shape: (3, 128, 128)
2023-01-10 08:50:34,107 - INFO - STGCN(
  (st_conv1): STConvBlock(
    (tconv1): TemporalConvLayer(
      (align): Align()
      (conv): Conv2d(2, 64, kernel_size=(3, 1), stride=(1, 1))
    )
    (sconv): SpatioConvLayer(
      (align): Align()
    )
    (tconv2): TemporalConvLayer(
      (align): Align()
      (conv): Conv2d(32, 64, kernel_size=(3, 1), stride=(1, 1))
    )
    (ln): LayerNorm((128, 64), eps=1e-05, elementwise_affine=True)
    (dropout): Dropout(p=0, inplace=False)
  )
  (st_conv2): STConvBlock(
    (tconv1): TemporalConvLayer(
      (align): Align(
        (conv1x1): Conv2d(64, 32, kernel_size=(1, 1), stride=(1, 1))
      )
      (conv): Conv2d(64, 64, kernel_size=(3, 1), stride=(1, 1))
    )
    (sconv): SpatioConvLayer(
      (align): Align()
    )
    (tconv2): TemporalConvLayer(
      (align): Align()
      (conv): Conv2d(32, 128, kernel_size=(3, 1), stride=(1, 1))
    )
    (ln): LayerNorm((128, 128), eps=1e-05, elementwise_affine=True)
    (dropout): Dropout(p=0, inplace=False)
  )
  (output): OutputLayer(
    (tconv1): TemporalConvLayer(
      (align): Align()
      (conv): Conv2d(128, 256, kernel_size=(4, 1), stride=(1, 1))
    )
    (ln): LayerNorm((128, 128), eps=1e-05, elementwise_affine=True)
    (tconv2): TemporalConvLayer(
      (align): Align()
      (conv): Conv2d(128, 128, kernel_size=(1, 1), stride=(1, 1))
    )
    (fc): FullyConvLayer(
      (conv): Conv2d(128, 2, kernel_size=(1, 1), stride=(1, 1))
    )
  )
)
2023-01-10 08:50:34,108 - INFO - st_conv1.tconv1.conv.weight	torch.Size([64, 2, 3, 1])	cuda:0	True
2023-01-10 08:50:34,108 - INFO - st_conv1.tconv1.conv.bias	torch.Size([64])	cuda:0	True
2023-01-10 08:50:34,108 - INFO - st_conv1.sconv.theta	torch.Size([32, 32, 3])	cuda:0	True
2023-01-10 08:50:34,108 - INFO - st_conv1.sconv.b	torch.Size([1, 32, 1, 1])	cuda:0	True
…
