…
2023-01-10 08:03:43,396 - INFO - train	x: (2067, 12, 156, 1), y: (2067, 12, 156, 1)
2023-01-10 08:03:43,396 - INFO - eval	x: (295, 12, 156, 1), y: (295, 12, 156, 1)
2023-01-10 08:03:43,396 - INFO - test	x: (591, 12, 156, 1), y: (591, 12, 156, 1)
2023-01-10 08:03:43,419 - INFO - StandardScaler mean: 13.170366931437767, std: 13.521559793261991
2023-01-10 08:03:43,419 - INFO - NoneScaler
2023-01-10 08:03:43,705 - INFO - You select quick mode to train STGCN model.
2023-01-10 08:03:43,859 - INFO - Chebyshev_polynomial_Lk shape: (3, 156, 156)
2023-01-10 08:03:48,839 - INFO - STGCN(
  (st_conv1): STConvBlock(
    (tconv1): TemporalConvLayer(
      (align): Align()
      (conv): Conv2d(1, 64, kernel_size=(3, 1), stride=(1, 1))
    )
    (sconv): SpatioConvLayer(
      (align): Align()
    )
    (tconv2): TemporalConvLayer(
      (align): Align()
      (conv): Conv2d(32, 64, kernel_size=(3, 1), stride=(1, 1))
    )
    (ln): LayerNorm((156, 64), eps=1e-05, elementwise_affine=True)
    (dropout): Dropout(p=0, inplace=False)
  )
  (st_conv2): STConvBlock(
    (tconv1): TemporalConvLayer(
      (align): Align(
        (conv1x1): Conv2d(64, 32, kernel_size=(1, 1), stride=(1, 1))
      )
      (conv): Conv2d(64, 64, kernel_size=(3, 1), stride=(1, 1))
    )
    (sconv): SpatioConvLayer(
      (align): Align()
    )
    (tconv2): TemporalConvLayer(
      (align): Align()
      (conv): Conv2d(32, 128, kernel_size=(3, 1), stride=(1, 1))
    )
    (ln): LayerNorm((156, 128), eps=1e-05, elementwise_affine=True)
    (dropout): Dropout(p=0, inplace=False)
  )
  (output): OutputLayer(
    (tconv1): TemporalConvLayer(
      (align): Align()
      (conv): Conv2d(128, 256, kernel_size=(4, 1), stride=(1, 1))
    )
    (ln): LayerNorm((156, 128), eps=1e-05, elementwise_affine=True)
    (tconv2): TemporalConvLayer(
      (align): Align()
      (conv): Conv2d(128, 128, kernel_size=(1, 1), stride=(1, 1))
    )
    (fc): FullyConvLayer(
      (conv): Conv2d(128, 1, kernel_size=(1, 1), stride=(1, 1))
    )
  )
)
2023-01-10 08:03:48,840 - INFO - st_conv1.tconv1.conv.weight	torch.Size([64, 1, 3, 1])	cuda:0	True
2023-01-10 08:03:48,840 - INFO - st_conv1.tconv1.conv.bias	torch.Size([64])	cuda:0	True
2023-01-10 08:03:48,840 - INFO - st_conv1.sconv.theta	torch.Size([32, 32, 3])	cuda:0	True
2023-01-10 08:03:48,840 - INFO - st_conv1.sconv.b	torch.Size([1, 32, 1, 1])	cuda:0	True
…
