…
<00:06,  2.07s/it]get Pattern:  71%|███████▏  | 5/7 [00:11<00:04,  2.09s/it]get Pattern:  86%|████████▌ | 6/7 [00:12<00:01,  1.64s/it]get Pattern: 100%|██████████| 7/7 [00:13<00:00,  1.51s/it]get Pattern: 100%|██████████| 7/7 [00:13<00:00,  1.91s/it]2024-03-17 07:52:51,411 - INFO - finish get Mobility Pattern
MGFN_layer(
  (encoder): MobilityPatternJointLearning(
    (multi_pattern_blocks): ModuleList(
      (0): GraphStructuralEncoder(
        (self_attn): MultiheadAttention(
          (out_proj): _LinearWithBias(in_features=11208, out_features=11208, bias=True)
        )
        (linear1): Linear(in_features=11208, out_features=512, bias=True)
        (dropout): Dropout(p=0.1, inplace=False)
        (linear2): Linear(in_features=512, out_features=11208, bias=True)
        (norm1): LayerNorm((11208,), eps=1e-05, elementwise_affine=True)
        (norm2): LayerNorm((11208,), eps=1e-05, elementwise_affine=True)
        (dropout1): Dropout(p=0.1, inplace=False)
        (dropout2): Dropout(p=0.1, inplace=False)
      )
      (1): GraphStructuralEncoder(
        (self_attn): MultiheadAttention(
          (out_proj): _LinearWithBias(in_features=11208, out_features=11208, bias=True)
        )
        (linear1): Linear(in_features=11208, out_features=512, bias=True)
        (dropout): Dropout(p=0.1, inplace=False)
        (linear2): Linear(in_features=512, out_features=11208, bias=True)
        (norm1): LayerNorm((11208,), eps=1e-05, elementwise_affine=True)
        (norm2): LayerNorm((11208,), eps=1e-05, elementwise_affine=True)
        (dropout1): Dropout(p=0.1, inplace=False)
        (dropout2): Dropout(p=0.1, inplace=False)
      )
      (2): GraphStructuralEncoder(
        (self_attn): MultiheadAttention(
          (out_proj): _LinearWithBias(in_features=11208, out_features=11208, bias=True)
        )
        (linear1): Linear(in_features=11208, out_features=512, bias=True)
        (dropout): Dropout(p=0.1, inplace=False)
        (linear2): Linear(in_features=512, out_features=11208, bias=True)
        (norm1): LayerNorm((11208,), eps=1e-05, elementwise_affine=True)
        (norm2): LayerNorm((11208,), eps=1e-05, elementwise_affine=True)
        (dropout1): Dropout(p=0.1, inplace=False)
        (dropout2): Dropout(p=0.1, inplace=False)
      )
    )
    (cross_graph_blocks): ModuleList(
      (0): GraphStructuralEncoder(
        (self_attn): MultiheadAttention(
          (out_proj): _LinearWithBias(in_features=11208, out_features=11208, bias=True)
        )
        (linear1): Linear(in_features=11208, out_features=512, bias=True)
        (dropout): Dropout(p=0.1, inplace=False)
        (linear2): Linear(in_features=512, out_features=11208, bias=True)
        (norm1): LayerNorm((11208,), eps=1e-05, elementwise_affine=True)
        (norm2): LayerNorm((11208,), eps=1e-05, elementwise_affine=True)
        (dropout1): Dropout(p=0.1, inplace=False)
        (dropout2): Dropout(p=0.1, inplace=False)
      )
    )
    (fc): DeepFc(
      (model): Sequential(
        (0): Linear(in_features=78456, out_features=156912, bias=True)
        (1): Linear(in_features=156912, out_features=156912, bias=True)
        (2): LeakyReLU(negative_slope=0.3, inplace=True)
        (3): Linear(in_features=156912, out_features=16, bias=True)
        (4): LeakyReLU(negative_slope=0.3, inplace=True)
      )
    )
    (linear_out): Linear(in_features=11208, out_features=16, bias=True)
    (s_linear): Linear(in_features=11208, out_features=5604, bias=True)
    (o_linear): Linear(in_features=11208, out_features=5604, bias=True)
    (concat): ConcatLinear(
      (linear1): Linear(in_features=11208, out_features=11208, bias=True)
      (act1): LeakyReLU(negative_slope=0.3, inplace=True)
      (dropout1): Dropout(p=0.1, inplace=False)
      (norm1): LayerNorm((11208,), eps=1e-05, elementwise_affine=True)
      (linear2): Linear(in_features=11208, out_features=11208, bias=True)
      (act2): LeakyReLU(negative_slope=0.3, inplace=True)
    )
  )
  (decoder_s): Linear(in_features=16, out_features=16, bias=True)
  (decoder_t): Linear(in_features=16, out_features=16, bias=True)
)
encoder.para1 1
encoder.para2 1
encoder.multi_pattern_blocks.0.self_attn.in_proj_weight 376857792
encoder.multi_pattern_blocks.0.self_attn.in_proj_bias 33624
encoder.multi_pattern_blocks.0.self_attn.out_proj.weight 125619264
encoder.multi_pattern_blocks.0.self_attn.out_proj.bias 11208
encoder.multi_pattern_blocks.0.linear1.weight 5738496
encoder.multi_pattern_blocks.0.linear1.bias 512
…
